models/ann_model_pytorch.pth (torch, 13199 bytes, 13 tensors)

model.0.weight f4 [32, 30]
0.041685905 0.19392805 -0.028744034 0.20933649 -0.062253468 0.06074029 -0.00051105686 0.09052074
0.17764865 -0.14825846 0.1403616 0.019933188 0.12065005 0.1416371 0.07379779 0.02441824
0.1265064 0.00016860045 -0.09947023 0.10202596 -0.098355934 -0.0399696 -0.08839135 0.17792529
-0.13651106 -0.024109075 -0.0012453332 -0.052843776 -0.0228735 -0.18587786 0.12678465 -0.07232792
0.088030376 0.09718914 -0.061526727 0.06904838 0.113884374 0.1698385 -0.0023659312 -0.13338803
-0.03340161 -0.045616347 0.08073184 0.22871011 0.1094329 -0.045644246 0.10928779 0.02124174
0.09661168 -0.023318065 -0.17683783 -0.13972504 -0.1361447 0.10108345 0.060181767 0.19989288
0.08802861 0.0139237 0.12697594 -0.15628977 0.045283493 -0.2950539 0.11329151 -0.14444572
0.014851453 0.0035305817 0.06967134 -0.1533562 -0.06374327 0.04470648 0.25944594 0.06361379
0.17845264 -0.09736248 -0.17832047 -0.17181453 -0.12004489 0.04637178 0.06814611 -0.060699046
-0.0915153 -0.030722491 0.0996405 0.004479385 -0.0454535 -0.03362833 0.16707468 -0.19192353
0.005477305 -0.033326343 0.07819703 0.007428868 0.06573137 0.13679071 -0.07352667 -0.04164635
0.22183351 -0.054544374 -0.07178762 -0.16864142 -0.17736478 0.066286184 -0.0034199758 -0.13745062
0.024961207 -0.13636753 -0.13421686 -0.14682041 -0.13911273 -0.09445863 0.20318103 0.049708404
0.076940455 -0.20292954 -0.14452435 -0.024512334 0.02132509 -0.08451018 -0.10674716 -0.10373652
0.04377288 -0.06708512 -0.00017521119 -0.0643991 -0.090134494 -0.10707421 -0.0053012935 -0.12942135
0.13840199 -0.085370615 0.14375426 0.036805313 -0.17468475 0.18308704 -0.07031571 -0.06623574
-0.171631 -0.22057284 0.032154877 -0.0039458717 0.050998803 -0.18810417 0.11546714 -0.09913281
-0.12123731 -0.025590451 0.07941387 0.23122667 0.112256095 -0.17388014 0.05384178 -0.18682164
0.067771815 -0.17780033 0.062081695 -0.059803277 0.050089937 -0.014529948 0.13802241 0.044133667
0.30444607 -0.0008641816 -0.017498564 -0.1630923 0.035657614 -0.0414071 -0.12462671 0.057271123
-0.00028022856 -0.20603871 -0.13339287 0.12540913 0.060957313 0.037452053 -0.14625184 -0.116852514
0.061241534 -0.039347894 0.13354951 -0.029784525 -0.025871774 0.25021967 -0.021192035 -0.027887158
0.06941243 0.09456613 0.046201754 -0.031367794 -0.049060423 -0.0049462914 -0.15090813 -0.063809656
0.10730041 0.10604489 -0.027476668 -0.107398406 -0.006738127 -0.03065467 0.0344905 0.14206803
-0.17522675 -0.07540532 0.14434859 0.025082663 0.008584678 0.011709307 0.00619499 -0.11414683
-0.014861821 0.07962639 0.11300745 0.15227567 -0.15655366 -0.06378476 -0.07885367 0.1201468
0.046372056 0.022191858 0.006060594 -0.09055755 -0.17786285 0.04419205 -0.17208345 0.049259096
-0.27069244 0.12092969 0.04925805 0.077035345 -0.21637093 -0.12761529 -0.23734958 0.10461141
-0.0014117117 0.11053711 0.08511968 0.16368951 -0.018729663 -0.103972614 -0.11967083 -0.23036844
0.01477507 0.09199 -0.050911255 0.0034625563 -0.020941164 -0.0594079 -0.05208352 0.049733385
-0.043431997 0.11498714 -0.14005873 -0.13864407 -0.036927 -0.045773175 -0.060570873 -0.16099204
00000000: d7be 2a3d 1395 463e 9c78 ebbc 4e5c 563e
00000010: 7efd 7ebd cfca 783d 72f8 05ba f062 b93d
00000020: 87e9 353e 11d1 17be f4ba 0f3e ed4a a33c
00000030: 6017 f73d 5109 113e 4c23 973d c308 c83c
00000040: e58a 013e 57ca 3039 0cb7 cbbd fdf2 d03d
00000050: d66e c9bd 2ab7 23bd 8606 b5bd 0c32 363e
00000060: 8ec9 0bbe 6580 c5bc 733a a3ba b772 58bd
00000070: 3561 bbbc c456 3ebe d6d3 013e a920 94bd
00000080: 4549 b43d 1a0b c73d 7303 7cbd 3d69 8d3d
00000090: 363c e93d 25ea 2d3e bd0d 1bbb df96 08be
000000a0: 20d0 08bd 35d8 3abd bc56 a53d fc32 6a3e
000000b0: 5b1e e03d 76f5 3abd 47d2 df3d 2803 ae3c
000000c0: 58dc c53d 8705 bfbc fa14 35be 1514 0fbe
000000d0: 8469 0bbe d704 cf3d 2881 763d b8b0 4c3e
000000e0: 5848 b43d 3b20 643c fb05 023e 6d0a 20be
000000f0: 2f7b 393d 4e11 97be 6105 e83d 94e9 13be
00000100: 8253 733c 5561 673b d9af 8e3d 6809 1dbe
00000110: d58b 82bd 241e 373d 19d6 843e f247 823d
00000120: 4abc 363e fb65 c7bd a499 36be 26f0 2fbe
00000130: 18da f5bd 56f0 3d3d 3090 8b3d 909f 78bd
00000140: 606c bbbd bcad fbbc 5210 cc3d cec7 923b
00000150: 732d 3abd dcbd 09bd a015 2b3e 9a87 44be
00000160: f77a b33b 3481 08bd c425 a03d dd6d f33b
00000170: 2b9e 863d dd12 0c3e 2795 96bd 5d95 2abd
00000180: 5328 633e ec69 5fbd 6305 93bd 56b0 2cbe
00000190: 1d9f 35be 0dc1 873d ac21 60bb dbbf 0cbe
000001a0: 727b cc3c eea3 0bbe 2570 09be 1758 16be
000001b0: 9173 0ebe 8773 c1bd b00e 503e 0a9b 4b3d
000001c0: f592 9d3d c3cc 4fbe 31fe 13be 17ce c8bc
000001d0: f5b1 ae3c ac13 adbd 419e dabd d073 d4bd
000001e0: 314b 333d ec63 89bd e5b8 37b9 ade3 83bd
000001f0: 6f98 b8bd b949 dbbd 79b6 adbb 0887 04be
00000200: 40b9 0d3e cad6 aebd 5134 133e 2bc1 163d
00000210: 8fe0 32be 2b7b 3b3e af01 90bd 9ba6 87bd
00000220: 09c0 2fbe d9dd 61be d5b4 033d 5f4c 81bb
00000230: 1fe4 503d 619e 40be 097a ec3d 2506 cbbd
00000240: 444b f8bd 11a3 d1bc bda3 a23d afc6 6c3e
00000250: 86e6 e53d a30d 32be 3389 5c3d 2c4e 3fbe
00000260: f3cb 8a3d 4a11 36be 6049 7e3d 48f4 74bd
00000270: 1b2b 4d3d 050f 6ebc bf55 0d3e 81c5 343d
00000280: 5be0 9b3e 3f8a 62ba 2659 8fbc ab01 27be
00000290: b80d 123d 7e9a 29bd 4a3c ffbd 2095 6a3d
000002a0: a4eb 92b9 d0fb 52be 2498 08be 406b 003e
000002b0: 60ae 793d 5367 193d 0bc3 15be 5f50 efbd
000002c0: 67d8 7a3d 422b 21bd 34c1 083e adfe f3bc
000002d0: 0bf1 d3bc cb1c 803e eb9a adbc 9c73 e4bc
000002e0: 1b28 8e3d e3ab c13d 0d3e 3d3d 847b 00bd
000002f0: 95f3 48bd 8014 a2bb a987 1abe a3ae 82bd
00000300: 51c0 db3d 102e d93d c016 e1bc b2f3 dbbd
00000310: 82cb dcbb 811f fbbc e945 0d3d 487a 113e
00000320: a46e 33be 1b6e 9abd 1ed0 133e 287a cd3c
00000330: c0a6 0c3c 65d8 3f3c 58ff ca3b d0c5 e9bd
00000340: ff7e 73bc 2913 a33d 7370 e73d 27ee 1b3e
00000350: 9a4f 20be 96a1 82bd 087e a1bd 870f f63d
00000360: a0f0 3d3d b3cb b53c f397 c63b 3d76 b9bd
00000370: ae21 36be b902 353d a536 30be e8c3 493d
00000380: 3398 8abe fca9 f73d cfc2 493d b5c4 9d3d
00000390: 5790 5dbe 95ad 02be c50b 73be 823e d63d
000003a0: 2f09 b9ba 4861 e23d 3a53 ae3d 399e 273e
000003b0: f36e 99bc 98ef d4bd fb15 f5bd b4e5 6bbe
000003c0: 2313 723c 4165 bc3d 5288 50bd 0eec 623b
000003d0: ce8c abbc b355 73bd 8755 55bd 3cb5 4b3d
000003e0: c0e5 31bd 617e eb3d 8e6b 0fbe b6f8 0dbe
000003f0: c440 17bd a77c 3bbd 2a19 78bd 19db 24be

model.0.bias f4 [32]
-0.1339163 0.00025214223 -0.14030312 -0.03449669 -0.052180693 0.15051125 0.056009352 -0.0330223
0.032102767 -0.054585557 0.07248166 0.076773174 0.04928012 -0.07206353 0.15481108 -0.025350843
-0.07225767 0.114110656 0.15766324 0.18754473 0.04636708 -0.061693795 0.09532181 0.15731211
-0.1824558 -0.0207354 -0.12451182 0.034231603 0.0736032 -0.03646214 -0.018360564 0.08289641
00000000: 5b21 09be f531 8439 9fab 0fbe 674c 0dbd
00000010: 6cbb 55bd 9f1f 1a3e 106a 653d 6442 07bd
00000020: 317e 033d 1b95 5fbd 4471 943d 413b 9d3d
00000030: f3d9 493d 0b96 93bd cc86 1e3e 92ac cfbc
00000040: d4fb 93bd d9b2 e93d 7972 213e ba0b 403e
00000050: 68eb 3d3d a2b2 7cbd 1538 c33d 6d16 213e
00000060: b1d5 3abe 49dd a9bc 0e00 ffbd 7036 0c3d
00000070: 46bd 963d 5359 15bd e568 96bc 98c5 a93d

model.1.weight f4 [32]
0.9854804 0.9742813 1.1244202 0.9054517 0.9272593 1.1228219 0.96600693 0.91707635
0.9764632 0.99525094 1.0590569 1.1082495 1.0295528 0.91326296 0.9937806 0.91392237
0.9709608 0.934763 1.0780126 1.1044054 1.0206084 0.93645626 0.9907583 0.9675323
0.98111045 0.9608992 1.021623 0.99592084 0.97666943 1.0466807 0.94148624 1.079812
00000000: 7248 7c3f 806a 793f 00ed 8f3f afcb 673f
00000010: de60 6d3f a1b8 8f3f 3b4c 773f 84c5 6a3f
00000020: 7ef9 793f c4c8 7e3f 2d8f 873f 1fdb 8d3f
00000030: 63c8 833f 9acb 693f 6868 7e3f d1f6 693f
00000040: e390 783f a14c 6f3f 51fc 893f 285d 8d3f
00000050: 4ca3 823f 99bb 6f3f 56a2 7d3f 32b0 773f
00000060: 0e2a 7b3f 7dfd 753f 8bc4 823f abf4 7e3f
00000070: 0207 7a3f a2f9 853f 3e05 713f 4837 8a3f

model.1.bias f4 [32]
-0.03483178 -0.026116956 -0.056311946 -0.036430128 -0.068294324 -0.028355258 0.0043414645 -0.02326079
0.034745313 -0.03544626 -0.07559843 -0.04097597 -0.009559399 -0.07628744 -0.08471281 -0.019451058
-0.014395836 -0.06942419 0.095527 -0.04653336 0.03497789 -0.09910523 0.070747964 -0.0637217
0.02976582 -0.04345153 -0.009736037 -0.05315114 -0.034927994 0.025676196 -0.016588088 -0.01781732
00000000: c5ab 0ebd 3af3 d5bc 5ba7 66bd c237 15bd
00000010: e5dd 8bbd 4949 e8bc d842 8e3b 6a8d bebc
00000020: 1a51 0e3d 1930 11bd 5ad3 9abd 6bd6 27bd
00000030: 079f 1cbc 973c 9cbd e97d adbd d357 9fbc
00000040: 83dc 6bbc 452e 8ebd a9a3 c33d c499 3ebd
00000050: fa44 0f3d aff7 cabd 4fe4 903d 8680 82bd
00000060: 73d7 f33c 3bfa 31bd e683 1fbc 03b5 59bd
00000070: a810 0fbd e356 d23c bee3 87bc a1f5 91bc

model.1.running_mean f4 [32]
-0.17220336 -0.038563702 -0.14278306 0.0022806032 -0.02879396 0.13801093 0.06420216 -0.091175
0.046993796 -0.05160917 0.07593119 0.08029907 0.030725796 -0.08852058 0.13513379 -0.011655463
-0.060253892 0.13022321 0.16402406 0.18193324 0.05482809 -0.051622484 0.08698291 0.17375419
-0.20578413 -0.00986809 -0.120422125 0.019436358 0.067724556 -0.015499801 -0.02896371 0.1037763
00000000: 1456 30be f9f4 1dbd b935 12be 2c76 153b
00000010: 50e1 ebbc bd52 0d3e 6c7c 833d f5b9 babd
00000020: 917c 403d 2364 53bd d081 9b3d d773 a43d
00000030: aab4 fb3c 474a b5bd 8360 0a3e 8ef6 3ebc
00000040: c9cc 76bd 3c59 053e ecf5 273e b54c 3a3e
00000050: 6b93 603d 1972 53bd 1924 b23d 9eec 313e
00000060: 13b9 52be c5ad 21bc e09f f6bd ff38 9f3c
00000070: 2cb3 8a3d e1f2 7dbc 4d45 edbc ab88 d43d

model.1.running_var f4 [32]
0.40330523 0.24961004 0.5439508 0.29300484 0.5122914 0.7888668 0.22002205 0.8227506
0.47456846 0.6465225 0.36066666 0.63837063 0.3443546 0.53029245 0.38495144 0.42836538
0.28746846 0.42898294 0.40333387 0.5149366 0.6854047 0.31268662 0.34750104 0.53113407
0.53329486 0.6657521 0.57365096 0.39964825 0.37596872 0.29005405 0.20214143 0.754827
00000000: 067e ce3e c699 7f3e 5c40 0b3f bb04 963e
00000010: 8725 033f 2df3 493f 764d 613e c99f 523f
00000020: a3fa f23e 8082 253f 4da9 b83e 426c 233f
00000030: 3f4f b03e 3fc1 073f 5b18 c53e b552 db3e
00000040: 112f 933e a7a3 db3e c781 ce3e e3d2 033f
00000050: af76 2f3f 7618 a03e a8eb b13e 67f8 073f
00000060: 0386 083f bb6e 2a3f cada 123f b29e cc3e
00000070: f97e c03e f781 943e 2afe 4e3e 583c 413f

model.4.weight f4 [16, 32]
-0.081354156 -0.10103935 0.22605644 -0.12565528 0.08553642 0.11596158 -0.02507214 -0.18588956
0.0644101 -0.0012140102 0.025730236 0.09120028 -0.065336846 -0.12315408 0.034222934 -0.09429135
-0.06610438 0.028628457 -0.04647258 -0.059200116 -0.034927145 -0.034198307 -0.027113913 0.035187196
-0.124169484 0.01583543 0.16786686 0.09314123 -0.12296828 -0.08484942 -0.17585765 -0.017116882
0.009875305 -0.082908615 0.20509456 -0.07634797 0.082959674 -0.02958387 0.08026165 -0.06798279
-0.014212443 -0.09123205 0.11907661 0.20622072 0.034175355 -0.16157213 0.05275886 -0.037309103
-0.100403436 0.15964481 -0.037161388 0.0951707 -0.026657544 -0.1359094 0.039783984 0.08186007
0.011040899 -0.055276062 0.19217642 0.054703236 -0.028589707 -0.052523058 0.106319495 0.04537894
-0.04686337 -0.08968272 0.08567821 -0.18654236 -0.08848497 0.19998334 0.12288793 0.116001055
-0.11513308 0.121616244 0.03167012 0.21355645 0.07566981 0.03737135 0.13732632 0.04534655
-0.022944769 0.0909115 -0.18298915 0.14129259 -0.009564987 -0.05200583 -0.11107864 -0.048384972
-0.04281111 0.004519441 -0.007861714 -0.021058869 0.018378858 0.09591353 0.012166271 0.20304109
-0.12324556 -0.14640772 0.14579321 0.057964098 -0.075405404 0.112256505 0.068096936 0.012448849
-0.11273486 0.1538463 0.14173105 0.18784696 -0.1274408 0.016715439 -0.051814597 0.13745382
-0.09509378 0.116079204 -0.09957602 0.10314431 -0.017604163 0.011839731 -0.07293265 -0.18897763
-0.045294985 0.1025971 0.05156343 0.103592224 -0.061410215 0.12147763 0.03268297 0.121788785
-0.11223552 -0.1215786 -0.11237441 -0.044252146 0.060685508 -0.25299653 0.14490578 0.17902566
0.14910886 -0.07683956 -0.29692307 -0.0051364168 0.07490002 -0.1395482 0.09496456 -0.03557958
0.06510507 0.108720325 -0.12704505 -0.25658366 -0.017528458 -0.02757889 0.075657174 -0.029451005
0.0444312 -0.08517793 -0.1645975 -0.26139823 0.17495263 0.07464057 -0.09135188 0.014282681
0.038551684 0.030867884 -0.22429168 -0.01816856 0.16109234 -0.0557649 -0.018353648 0.15729621
0.06455374 0.030701956 -0.021768773 -0.03248545 -0.17567368 0.13584986 -0.109662786 -1.0785247e-05
-0.058049396 -0.011179 0.082699895 -0.16737142 0.01317308 0.07450328 0.25316733 0.19348966
0.09907826 0.039657775 -0.03212094 -0.08385174 0.08004996 0.1401712 -0.08107751 -0.24317151
0.025682077 -0.044613868 -0.18475127 -0.027174968 -0.05021212 -0.10666534 0.014058443 0.085033916
0.21428876 -0.25194272 -0.19047286 -0.20390555 -0.052897975 -0.1487182 -0.064246245 0.024971396
-0.0033587029 -0.08544761 -0.017165082 0.05649046 -0.113320656 0.034906913 0.11052317 0.067805074
0.15085621 0.10512282 0.018216206 -0.20028105 0.1599544 0.1709833 -0.023303786 0.10054602
0.09707003 0.0033071453 0.19963495 -0.1201462 -0.08285801 0.11476509 0.020048156 -0.15510763
0.04415769 -0.045703407 0.18656771 0.22043476 -0.0039646025 -0.116918035 0.1298604 -0.068583295
0.0139687965 0.10135851 0.045187596 0.023292936 0.03371323 -0.006337082 0.0029541086 0.10235037
-0.04935619 0.038035132 0.11313755 0.042676903 0.093155794 -0.026843516 -0.17184497 0.06222092
00000000: 029d a6bd b8ed cebd 577b 673e c7ab 00be
00000010: b82d af3d 447d ed3d 1764 cdbc d559 3ebe
00000020: 71e9 833d 6c1f 9fba 37c8 d23c 36c7 ba3d
00000030: 53cf 85bd 3538 fcbd 592d 0c3d d31b c1bd
00000040: bc61 87bd 3a86 ea3c 085a 3ebd d27b 72bd
00000050: c40f 0fbd 8613 0cbd ff1d debc 7320 103d
00000060: 924c febd 4eb9 813c 4ae5 2b3e d4c0 be3d
00000070: cbd6 fbbd 88c5 adbd 0714 34be b438 8cbc
00000080: 08cc 213c fecb a9bd 4f04 523e 535c 9cbd
00000090: c3e6 a93d df59 f2bc 3860 a43d 903a 8bbd
000000a0: 4edb 68bc ded7 babd 70de f33d 862b 533e
000000b0: 75fb 0b3d 2a73 25be ad19 583d 6ed1 18bd
000000c0: 51a0 cdbd ee79 233e 8a36 18bd dbe8 c23d
000000d0: ec60 dabc d52b 0bbe 88f4 223d 41a6 a73d
000000e0: e3e4 343c 2769 62bd e5c9 443e 8010 603d
000000f0: f634 eabc 6b22 57bd 09be d93d 44df 393d
00000100: cef3 3fbd 93ab b7bd 0f78 af3d f604 3fbe
00000110: 9c37 b5bd 6fc8 4c3e abac fb3d f691 ed3d
00000120: e4ca ebbd f011 f93d 87b8 013d 8bae 5a3e
00000130: c6f8 9a3d b312 193d 459f 0c3e 4ebd 393d
00000140: abf6 bbbc cf2f ba3d 8261 3bbe 01af 103e
00000150: 77b6 1cbc 1104 55bd 337d e3bd 522f 46bd
00000160: b45a 2fbd d217 943b 6bce 00bc a683 acbc
00000170: 428f 963c 506e c43d 0a55 473c 01ea 4f3e
00000180: 2b68 fcbd e8eb 15be d14a 153e c36b 6d3d
00000190: 266e 9abd bde6 e53d 6876 8b3d 42f6 4b3c
000001a0: 89e1 e6bd e289 1d3e f221 113e f45a 403e
000001b0: d77f 02be d1ee 883c 8b3b 54bd b2c0 0c3e
000001c0: 87c0 c2bd efba ed3d 83ee cbbd 533d d33d
000001d0: 9b36 90bc 6efb 413c b75d 95bd 5a83 41be
000001e0: 3c87 39bd 6e1e d23d 2d34 533d 2928 d43d
000001f0: 4789 7bbd 44c9 f83d 94de 053d 666c f93d
00000200: bcdb e5bd 33fe f8bd 8e24 e6bd bd41 35bd
00000210: 5e91 783d c388 81be 2e62 143e 8152 373e
00000220: feaf 183e 0f5e 9dbd 4d06 98be 634f a8bb
00000230: 2f65 993d b9e5 0ebe c77c c23d e5bb 11bd
00000240: cf55 853d c3a8 de3d 1918 02be ef5e 83be
00000250: d797 8fbc 20ed e1bc 26f2 9a3d 3c43 f1bc
00000260: 7dfd 353d c471 aebd 3f8c 28be fdd5 85be
00000270: c826 333e 28dd 983d b216 bbbd e801 6a3c
00000280: 5fe8 1d3d a5de fc3c b8ac 65be 3bd6 94bc
00000290: 64f5 243e bc69 64bd 645a 96bc 4212 213e
000002a0: c034 843d ab82 fb3c 6d54 b2bc 770f 05bd
000002b0: cde3 33be 3a1c 0b3e e296 e0bd 48f2 34b7
000002c0: 34c5 6dbd 2028 37bc 905e a93d 6a63 2bbe
000002d0: e7d3 573c 2d95 983d 269f 813e 2722 463e
000002e0: 8be9 ca3d 3170 223d 3f91 03bd 76ba abbd
000002f0: 3cf1 a33d 0a89 0f3e f70b a6bd f401 79be
00000300: 3863 d23c 08bd 36bd 702f 3dbe 0a9e debc
00000310: 39ab 4dbd 5c73 dabd 6255 663c 4326 ae3d
00000320: 836e 5b3e a3fe 80be 510b 43be 9ecc 50be
00000330: 8cab 58bd 9549 18be 8993 83bd d090 cc3c
00000340: af1d 5cbb 28ff aebd c99d 8cbc 8a62 673d
00000350: a914 e8bd 8dfa 0e3d f959 e23d 63dd 8a3d
00000360: 0d7a 1a3e a24a d73d 273a 953c 7a16 4dbe
00000370: 16cb 233e 3f16 2f3e 95e7 bebc 12eb cd3d
00000380: a7cc c63d b1bc 583b 1b6d 4c3e 360f f6bd
00000390: 76b1 a9bd f609 eb3d 083c a43c 89d4 1ebe
000003a0: b2de 343d 7f33 3bbd 9b0b 3f3e a6b9 613e
000003b0: 7fe9 81bb b972 efbd 20fa 043e 6675 8cbd
000003c0: 61dd 643c 0d95 cf3d a116 393d d4d0 be3c
000003d0: e216 0a3d 4ca7 cfbb b899 413b 129d d13d
000003e0: b729 4abd baca 1b3d a9b4 e73d facd 2e3d
000003f0: 77c8 be3d efe6 dbbc 21f8 2fbe 5ddb 7e3d

model.4.bias f4 [16]
0.07276341 -0.17123465 0.0811702 0.030583566 0.05607068 0.053822655 -0.08793775 0.15060171
0.07931597 0.109652154 0.020842623 0.114223965 0.1379712 0.069964804 0.13699235 -0.003418866
00000000: fc04 953d 2358 2fbe 903c a63d 638a fa3c
00000010: 5faa 653d 2575 5c3d b518 b4bd 5637 1a3e
00000020: 6970 a23d 4f91 e03d 26be aa3c 41ee e93d
00000030: 5248 0d3e b549 8f3d b947 0c3e 0e0f 60bb

model.5.weight f4 [16]
0.9214831 1.0077716 0.9484203 0.8899444 1.1128445 1.171303 1.2885243 0.9562747
1.2533004 1.1849252 0.9367361 0.93674165 1.1775995 1.3383964 1.266594 1.2013606
00000000: 51e6 6b3f a9fe 803f accb 723f 65d3 633f
00000010: b071 8e3f 42ed 953f 5dee a43f 6bce 743f
00000020: 266c a03f a1ab 973f f0cd 6f3f 4dce 6f3f
00000030: 95bb 963f 9350 ab3f c11f a23f 2fc6 993f

model.5.bias f4 [16]
-0.14525698 -0.123624936 -0.14593482 -0.1708718 0.21758728 0.28754243 0.3781755 -0.081807435
0.39779487 0.36044562 -0.16323444 -0.1503118 0.24565758 0.3806881 0.41059577 0.26386663
00000000: 3fbe 14be 122f fdbd f06f 15be 04f9 2ebe
00000010: 33cf 5e3e c338 933e 38a0 c13e a88a a7bd
00000020: c5ab cb3e 548c b83e ee26 27be 56eb 19be
00000030: a98d 7b3e 8de9 c23e 9c39 d23e 8719 873e

model.5.running_mean f4 [16]
-0.12663363 0.0911124 0.3869619 0.27381504 -0.39274788 0.13091312 -0.25566337 0.5353527
-0.17090587 0.04686207 0.2830701 0.18757586 -0.13703156 -0.14368631 -0.334642 -0.19434093
00000000: 3fac 01be 2399 ba3d df1f c63e 7c31 8c3e
00000010: 4016 c9be 170e 063e 4fe6 82be e00c 093f
00000020: f301 2fbe 71f2 3f3d 90ee 903e e313 403e
00000030: 0052 0cbe 8122 13be 3256 abbe 4f01 47be

model.5.running_var f4 [16]
0.48319468 0.28673342 0.5208113 0.6700013 0.92832595 0.5982583 0.81928134 0.37701625
0.73407555 0.56096506 0.73097426 0.754009 0.7594514 0.6687298 0.8661216 0.7662679
00000000: 4b65 f73e b9ce 923e e453 053f 3585 2b3f
00000010: c5a6 6d3f 7527 193f 6cbc 513f 4608 c13e
00000020: 60ec 3b3f 689b 0f3f 2121 3b3f bc06 413f
00000030: 686b 423f e031 2b3f 25ba 5d3f 222a 443f

model.8.weight f4 [1, 16]
0.092228025 0.07104722 0.10411165 0.13860907 -0.1453702 -0.264861 -0.26046383 0.039936714
-0.22591454 -0.25864267 0.14617513 0.09606385 -0.3287759 -0.27327296 -0.24885634 -0.35208872
00000000: 0ce2 bc3d 3481 913d 7d38 d53d 89ef 0d3e
00000010: eddb 14be dc9b 87be 845b 85be ae94 233d
00000020: 2456 67be d06c 84be efae 153e 20bd c43d
00000030: 5155 a8be 6fea 8bbe 32d4 7ebe f944 b4be
